Namespace(basemodel='ResNet256F', beta1=0.5, clamp_lower=-0.01, clamp_upper=0.01, cuda=True, data_name='miniImageNet', dataset_dir='dataset/miniImageNet', episodeSize=1, episode_test_num=1000, episode_train_num=10000, episode_val_num=1000, epochs=30, imageSize=84, lr=0.001, mode='train', nc=3, neighbor_k=3, ngpu=1, outf='./results/DN4_miniImageNet_ResNet256F_5Way_5Shot_K3', print_freq=100, query_num=10, resume='', shot_num=5, testepisodeSize=1, way_num=5, workers=8)
ResNetLike(
  (feat_extractor): Sequential(
    (ConvL0): Conv2d(3, 64, kernel_size=(3, 3), stride=(1, 1), padding=(1, 1))
    (ResBlock0): ResBlock(
      (conv_block): Sequential(
        (BNorm1): BatchNorm2d(64, eps=1e-05, momentum=0.1, affine=True, track_running_stats=True)
        (LRelu1): LeakyReLU(negative_slope=0.2)
        (ConvL1): Conv2d(64, 64, kernel_size=(3, 3), stride=(1, 1), padding=(1, 1), bias=False)
        (BNorm2): BatchNorm2d(64, eps=1e-05, momentum=0.1, affine=True, track_running_stats=True)
        (LRelu2): LeakyReLU(negative_slope=0.2)
        (ConvL2): Conv2d(64, 64, kernel_size=(3, 3), stride=(1, 1), padding=(1, 1), bias=False)
        (BNorm3): BatchNorm2d(64, eps=1e-05, momentum=0.1, affine=True, track_running_stats=True)
        (LRelu3): LeakyReLU(negative_slope=0.2)
        (ConvL3): Conv2d(64, 64, kernel_size=(3, 3), stride=(1, 1), padding=(1, 1), bias=False)
      )
      (skip_layer): Conv2d(64, 64, kernel_size=(1, 1), stride=(1, 1))
    )
    (MaxPool0): MaxPool2d(kernel_size=2, stride=2, padding=0, dilation=1, ceil_mode=False)
    (ResBlock1): ResBlock(
      (conv_block): Sequential(
        (BNorm1): BatchNorm2d(64, eps=1e-05, momentum=0.1, affine=True, track_running_stats=True)
        (LRelu1): LeakyReLU(negative_slope=0.2)
        (ConvL1): Conv2d(64, 96, kernel_size=(3, 3), stride=(1, 1), padding=(1, 1), bias=False)
        (BNorm2): BatchNorm2d(96, eps=1e-05, momentum=0.1, affine=True, track_running_stats=True)
        (LRelu2): LeakyReLU(negative_slope=0.2)
        (ConvL2): Conv2d(96, 96, kernel_size=(3, 3), stride=(1, 1), padding=(1, 1), bias=False)
        (BNorm3): BatchNorm2d(96, eps=1e-05, momentum=0.1, affine=True, track_running_stats=True)
        (LRelu3): LeakyReLU(negative_slope=0.2)
        (ConvL3): Conv2d(96, 96, kernel_size=(3, 3), stride=(1, 1), padding=(1, 1), bias=False)
      )
      (skip_layer): Conv2d(64, 96, kernel_size=(1, 1), stride=(1, 1))
    )
    (MaxPool1): MaxPool2d(kernel_size=2, stride=2, padding=0, dilation=1, ceil_mode=False)
    (ResBlock2): ResBlock(
      (conv_block): Sequential(
        (BNorm1): BatchNorm2d(96, eps=1e-05, momentum=0.1, affine=True, track_running_stats=True)
        (LRelu1): LeakyReLU(negative_slope=0.2)
        (ConvL1): Conv2d(96, 128, kernel_size=(3, 3), stride=(1, 1), padding=(1, 1), bias=False)
        (BNorm2): BatchNorm2d(128, eps=1e-05, momentum=0.1, affine=True, track_running_stats=True)
        (LRelu2): LeakyReLU(negative_slope=0.2)
        (ConvL2): Conv2d(128, 128, kernel_size=(3, 3), stride=(1, 1), padding=(1, 1), bias=False)
        (BNorm3): BatchNorm2d(128, eps=1e-05, momentum=0.1, affine=True, track_running_stats=True)
        (LRelu3): LeakyReLU(negative_slope=0.2)
        (ConvL3): Conv2d(128, 128, kernel_size=(3, 3), stride=(1, 1), padding=(1, 1), bias=False)
      )
      (skip_layer): Conv2d(96, 128, kernel_size=(1, 1), stride=(1, 1))
    )
    (ResBlock3): ResBlock(
      (conv_block): Sequential(
        (BNorm1): BatchNorm2d(128, eps=1e-05, momentum=0.1, affine=True, track_running_stats=True)
        (LRelu1): LeakyReLU(negative_slope=0.2)
        (ConvL1): Conv2d(128, 256, kernel_size=(3, 3), stride=(1, 1), padding=(1, 1), bias=False)
        (BNorm2): BatchNorm2d(256, eps=1e-05, momentum=0.1, affine=True, track_running_stats=True)
        (LRelu2): LeakyReLU(negative_slope=0.2)
        (ConvL2): Conv2d(256, 256, kernel_size=(3, 3), stride=(1, 1), padding=(1, 1), bias=False)
        (BNorm3): BatchNorm2d(256, eps=1e-05, momentum=0.1, affine=True, track_running_stats=True)
        (LRelu3): LeakyReLU(negative_slope=0.2)
        (ConvL3): Conv2d(256, 256, kernel_size=(3, 3), stride=(1, 1), padding=(1, 1), bias=False)
      )
      (skip_layer): Conv2d(128, 256, kernel_size=(1, 1), stride=(1, 1))
    )
    (ReluF1): LeakyReLU(negative_slope=0.2, inplace=True)
  )
  (imgtoclass): ImgtoClass_Metric()
)
===================================== Epoch 0 =====================================
Trainset: 10000
Valset: 1000
Testset: 1000
Eposide-(0): [100/10000]	Time 0.319 (0.364)	Data 0.000 (0.013)	Loss 1.618 (1.960)	Prec@1 18.000 (26.238)
Eposide-(0): [200/10000]	Time 0.358 (0.349)	Data 0.001 (0.007)	Loss 1.526 (1.776)	Prec@1 30.000 (26.517)
…
